models/amp_classifier/layers/NoConvAMPClassifier_embedding/0_weight.npy (npy, 10880 bytes, 1 tensors)

array f4 [21, 128]
00000000: c6e3 b5bd 4126 11bd 8a95 adbd 7f5a 3f3d
00000010: f0b1 1dbc e41e 8e3d 5c1f 013d bfea 933d
00000020: a756 663d f6ae be3c d85d 79bb 581e 1d3d
00000030: c673 a9bc d210 933d 9b8c a03d 37b8 2a3e
00000040: f4da 47bd f803 db3c 10a6 ed3b 4dd1 3c3d
00000050: 067b aebc 39ca 853b 3dac 13bc 840e afbd
00000060: 9e44 2ebb 925d 6d3d ebf0 9d3b 22b6 213b
00000070: 6310 08bd 827e e2bd dd06 d03d f507 c13c
00000080: 2ed1 8a3d 4a0b 87bd 8632 3ebd 9461 10bd
00000090: 62f3 d83d 1719 b83b 125e 6dbd aa38 483c
000000a0: 91f4 57bc dcf3 423c 4531 84bd 60b3 843d
000000b0: ddcb 643b d30b e7bc f51c 8fbd 9735 a0ba
000000c0: 37a0 81bd b3d0 85bd e26d a5bd 2d57 ce3c
000000d0: efb4 0abd 8ed3 2cbd dc40 913d fec4 f23c
000000e0: 49d8 e83c 955c b43c c485 393d 486b 86bc
000000f0: 62c9 37bd f957 20bd 80e5 bfbc 32df 343d
00000100: e67b 6dbd 2b3d d63d 5998 3ebd 8d44 ddbc
00000110: 74bf 1ebd 42fe b5bc a10d 12bd 287d 6abb
00000120: 0dc3 823c 1c00 dfbd 78d9 f13d bb0f 803b
00000130: ab1e 913c 5a05 a1bd 3975 9fbd abe2 333d
00000140: 2975 65bc 7f51 ea3c 4bba a03b 657d a63d
00000150: cadf 483d 0970 a1bc 66a2 ed3d 4b8a 8dbd
00000160: f604 653d 77e3 c43d 2dce 4b3d 3112 513c
00000170: 1736 85bd f241 773d 6f93 2a3d 435f d7bd
00000180: 4b4b 4dbd c7bd 88bd 3394 9fbd 71e0 4ebc
00000190: 02a9 21be 17a1 8e3c 9c81 513b feb3 3e3c
000001a0: ba44 4dbd 3274 813d 84c0 6fbd a6fd d23d
000001b0: 829c 873c 59ec 0bbe 730d 4e3d 4306 9d3c
000001c0: 631b 97bd cba3 a83c a806 a8bd 1783 18bd
000001d0: 766c 7bbd 27f3 9e3d d31f dc3b 5aaa 34bd
000001e0: ada7 2fbd 859f e33c abfa cc3c af49 6a3d
000001f0: 8a8c 73bd ad08 b73c 3281 cebc e630 5a3a
00000200: f5ea cfbc 0e72 3c3e cdec debd 5061 833e
00000210: 63c0 56bd 2078 d63d 48f2 b6bc fef6 0cbd
00000220: 4677 e4bd 9a4a de3b 610c 043e 4709 5fbd
00000230: 7da4 003e 67c7 48bc 10aa 053e 4b59 fd3c
00000240: 0fcf 093d f594 07bd a882 e33a ca65 2d3e
00000250: b909 193e 38ca 993d 6a39 ecbd dfa1 02be
00000260: 8afd 0c3d 5a1a 79bd 178d 853d d231 64bd
00000270: 8b7f 8fbd 935d 90bd c162 cbbd 1ea5 08be
00000280: 35d1 1cbd d204 723d bd99 0dbe e00a e43d
00000290: 6c2d 04be 1f39 583d db6b cfbd df2e 373d
000002a0: 0ca9 7839 92e2 8d3e a148 183c 8162 9bbd
000002b0: 5059 13bd 35f1 553e 7e44 4ebd cf26 863d
000002c0: 6ef7 fb3d 429d 4abd 11a3 1b3e 5cb9 2c3e
000002d0: 1b48 f13d a550 06be 2bc8 85be bc74 953d
000002e0: 33fb bfbd aede 66be 4f42 2c3d e6ce 003d
000002f0: 1b95 0abe 0474 bd3d 0858 163e 5e57 233c
00000300: 202d 15bb 646d e23d a985 1e3e e9e9 0bbe
00000310: 80a8 ddbd b3f9 96be fa36 99bd 5643 53bc
00000320: c289 063e deb7 9a3d 8aa1 42be 2d9e c7bd
00000330: 8139 4b3d 33e4 cb3d 8310 e23d 4a31 b63d
00000340: 7172 a1bd b1eb 9d3d 21c3 7d3c 3063 68bc
00000350: 869b e0bc df09 60bd 6e05 c93d 45e1 7fbe
00000360: a147 02be 39fa 43bc 9322 03be 159b 61be
00000370: 1d0e 10be 2126 1d3d ed84 883d e15c ea3b
00000380: 1c3b 113d 8ded 6b3d c096 14be 2e08 3abe
00000390: 7d6f 61bd fcbb c73d 0387 a8bd 13e3 753d
000003a0: 7067 073e c33e 973d 0eec 1e3d 8c0c fdbc
000003b0: 75cd 48bc 8c01 13bd 8261 b1bd 6235 093e
000003c0: c639 c0bd 551c 89bd 687c 023e 890e 0bbd
000003d0: 6fe2 8ebd 2841 c13a 7d38 b03d f285 653d
000003e0: 5ce8 253e f3a6 f13b 6a1f 633a 383e 993d
000003f0: 4768 9e3c ed79 103e c2b6 47bd 08b2 b13c
-0.08881335 -0.035436872 -0.08475788 0.046717163 -0.009624943 0.06939486 0.031524047 0.07222509
0.056234982 0.023276787 -0.003805032 0.038359016 -0.020685088 0.071809426 0.07839318 0.16671835
-0.048792794 0.02673529 0.007252462 0.046098042 -0.021298897 0.0040829447 -0.009013233 -0.085476905
-0.0026591192 0.057950564 0.0048199794 0.002467521 -0.033218753 -0.11059286 0.10157559 0.023563365
0.06778179 -0.0659395 -0.0464349 -0.035249308 0.105932966 0.0056182253 -0.05795104 0.012220541
-0.013180868 0.011898961 -0.0645471 0.064795256 0.003491155 -0.02820388 -0.06987945 -0.0012223002
-0.06329387 -0.06533947 -0.08077599 0.025188053 -0.033863958 -0.04219394 0.07092449 0.029634949
0.028423445 0.022016803 0.045293584 -0.016408578 -0.044869788 -0.039146397 -0.023424864 0.044158168
-0.057979487 0.104608856 -0.04653201 -0.027010227 -0.038756803 -0.022215966 -0.03565753 -0.0035780165
0.015962148 -0.10888693 0.11809057 0.003908125 0.017714819 -0.07862349 -0.0778603 0.04391734
-0.014004984 0.028603313 0.0049050204 0.08129386 0.049041547 -0.019706743 0.11603241 -0.06911143
0.055912934 0.09613698 0.04975717 0.012760685 -0.065044574 0.060365625 0.04164451 -0.105162166
-0.050120633 -0.06676822 -0.07791939 -0.012626753 -0.15787128 0.017410798 0.0031968122 0.011639593
-0.05011437 0.063209906 -0.058533207 0.10302286 0.01655412 -0.13664378 0.050305795 0.019168025
-0.073782705 0.020585915 -0.082043946 -0.037234392 -0.061382733 0.077612214 0.006717661 -0.044107772
-0.042884517 0.027786026 0.025021872 0.057199176 -0.0594602 0.022343004 -0.02520809 0.00083233265
-0.02538059 0.18402883 -0.1088501 0.2566018 -0.052429568 0.10472131 -0.022332326 -0.034415238
-0.11155562 0.0067837955 0.12895347 -0.054452207 0.12562747 -0.0122545725 0.13053155 0.030926367
0.033644732 -0.03310104 0.0017357664 0.1693336 0.14945115 0.07509273 -0.11534388 -0.12757061
0.03442148 -0.060816146 0.065210514 -0.055711575 -0.07006749 -0.07049098 -0.09930945 -0.13344237
-0.038285453 0.05908663 -0.13828178 0.11134887 -0.12907952 0.05278885 -0.10127994 0.044722434
0.00023714098 0.27711922 0.00929466 -0.075871475 -0.035973847 0.20892794 -0.050358288 0.06550371
0.12303053 -0.04946638 0.15198924 0.16867584 0.11781331 -0.13116701 -0.2612928 0.07297656
-0.09374084 -0.22545883 0.042055424 0.031447314 -0.13533442 0.09250644 0.14682019 0.00996956
-0.0022762492 0.11056021 0.15480675 -0.13663448 -0.108231544 -0.2948738 -0.07481189 -0.012894472
0.13138488 0.07554601 -0.19006935 -0.097469665 0.049615387 0.09955635 0.110383056 0.0889612
-0.07883156 0.0771097 0.015488417 -0.014183804 -0.02741791 -0.054696914 0.09815489 -0.24988277
-0.12722637 -0.011961513 -0.12806158 -0.22031815 -0.14067884 0.03836644 0.066659786 0.0071521853
0.03545676 0.057599593 -0.14510632 -0.18167183 -0.055037964 0.09752652 -0.082288764 0.060031008
0.13223052 0.07385018 0.038799338 -0.030889772 -0.012256016 -0.035890147 -0.08661176 0.1339927
-0.093860194 -0.06694857 0.1274277 -0.03394941 -0.069767825 0.001474415 0.08604524 0.056035943
0.1620192 0.007374638 0.0008664044 0.074825704 0.019336833 0.14109011 -0.048758276 0.021691337
