models/amp_classifier/layers/NoConvAMPClassifier_lstm1/0_weight.npy (npy, 131200 bytes, 1 tensors)

array f4 [128, 256]
-0.34694022 -0.29513252 -0.41260132 -0.20134634 -0.06251367 0.3701494 0.05214625 -0.08467688
0.021107199 0.007853831 0.014471134 0.011448595 -0.30214173 -0.18955928 0.038711037 -0.23467186
0.21667786 -0.0993182 0.15234835 -0.062053084 -0.081831366 0.14081496 0.5416059 -0.12354609
0.04485046 -0.097655684 0.09280967 0.108897775 -0.14078286 -0.16069496 0.1737277 -0.12267403
-0.11908295 -0.08536112 0.19555143 0.14394987 -0.04260922 -0.014755987 -0.07279139 -0.16386794
0.11213701 -0.049879704 0.019626109 -0.04336496 -0.020556215 0.09425194 0.2225251 0.14128257
0.30188665 -0.11738909 -0.16600998 -0.32392427 -0.012124755 -0.17716889 0.0024222943 -0.3129329
0.029443381 0.1469785 0.008302157 -0.1484342 0.10733371 -0.01337573 0.05660969 -0.1414376
0.09064796 -0.25609788 -0.12080963 -0.5035311 0.20101179 0.03289703 -0.57214063 -0.15727131
-0.043108042 -0.20633449 -0.07721748 -0.041907452 -0.4892286 -0.5799899 0.15261512 0.044239674
-0.2975366 -0.20642652 0.33493724 -0.26787344 -0.08283035 -0.17554298 0.11140056 -0.61338407
0.19618751 -0.50750566 -0.24634475 0.2989403 -0.07114668 0.569823 -0.18369651 -0.5045894
-0.33187214 -0.09299162 0.4781878 0.3181667 0.106387116 -0.3871718 -0.015963819 -0.25250024
0.012144376 -0.2157914 -0.50675416 0.2020497 0.068833224 -0.2042882 0.2207434 0.0052682706
-0.009803183 -0.4345782 -0.07319396 -0.41145852 -0.06770874 -0.49072194 -0.12052234 -0.2784338
-0.17405845 -0.071754724 -0.15149964 -0.13858667 -0.24293691 0.13060771 0.24637665 -0.34203684
0.047389388 0.1013876 -0.07420132 -0.15622953 -0.10158773 -0.011225352 -0.063547514 -0.20064296
-0.04340194 0.07748212 0.18560903 0.0053965473 0.11711126 0.12368397 0.0530007 -0.038524218
0.076327704 0.073335335 -0.1663992 -0.040529266 -0.0012429963 -0.009759152 -0.109247476 -0.08859763
-0.15678585 0.044963486 -0.23965856 0.13801996 0.035430394 -0.014327381 -0.13028544 0.048666712
-0.20985417 -0.111957826 -0.19939049 0.22668537 -0.059902027 -0.0028493328 -0.23468164 -0.12451261
0.074207276 -0.16177145 -0.04071847 -0.14358255 -0.07965083 -0.065312855 -0.15898375 0.0953339
-0.079055145 -0.13654292 0.14165789 -0.3169575 0.046244103 -0.20331933 0.2143737 -0.13679366
-0.03609053 -0.1519446 -0.30675617 -0.007125003 -5.2915857e-05 0.10760971 0.006829896 -0.15068863
0.0763769 -0.4475893 -0.5203725 -0.11546314 -0.00018379072 0.006268095 -0.08813443 -0.26026416
-0.07503349 -0.056634434 -0.12352551 -0.2047165 -0.26315325 -0.3679192 0.14128555 -0.20094381
-0.22256488 0.07249373 0.25023055 -0.08724053 -0.21739577 0.024548015 0.3302757 -0.52010626
0.23830007 -0.3263254 0.16476335 0.044670258 -0.21520774 0.2276238 0.18798025 -0.2965368
-0.3160943 0.035751108 0.2630687 -0.111663006 -0.27079937 -0.15115416 0.051749904 -0.038257875
0.16928768 -0.2222105 -0.05153432 -0.11496927 0.14723973 0.1365459 0.17226852 -0.10142143
0.11525806 -0.4586261 0.090955384 -0.17236668 -0.051697515 -0.3561477 -0.1214034 -0.19877002
-0.109422505 0.006457631 0.14527729 0.010739138 0.08436062 0.07851821 0.26515412 -0.48251006
00000000: 26a2 b1be 9c1b 97be 7b40 d3be bc2d 4ebe
00000010: 2b07 80bd 3984 bd3e 4e97 553d 126b adbd
00000020: 01e9 ac3c 5bad 003c 5618 6d3c e392 3b3c
00000030: 52b2 9abe d41b 42be 778f 1e3d d24d 70be
00000040: cde0 5d3e 5767 cbbd 3501 1c3e 602b 7ebd
00000050: 3497 a7bd cc31 103e afa6 0a3f bc05 fdbd
00000060: 1eb5 373d b4ff c7bd ff12 be3d cc05 df3d
00000070: 6229 10be 388d 24be ade5 313e 863c fbbd
00000080: c3e1 f3bd d0d1 aebd a23e 483e 9867 133e
00000090: 0187 2ebd 18c3 71bc a713 95bd ffcc 27be
000000a0: 17a8 e53d a94e 4cbd efc6 a03c 759f 31bd
000000b0: 8265 a8bc 2907 c13d 9fdd 633e 61ac 103e
000000c0: e390 9a3e b169 f0bd 85fe 29be 67d9 a5be
000000d0: e9a6 46bc c36b 35be 5bbf 1e3b be38 a0be
000000e0: 3f33 f13c 8881 163e c505 083c 23ff 17be
000000f0: c7d1 db3d e125 5bbc 90df 673d 05d5 10be
00000100: a3a5 b93d 431f 83be 0a6b f7bd 6ae7 00bf
00000110: 09d6 4d3e 09bf 063d cf77 12bf bb0b 21be
00000120: 0f92 30bd 5949 53be 3324 9ebd 26a7 2bbd
00000130: 2c7c fabe 387a 14bf 2347 1c3e a934 353d
00000140: b856 98be 7961 53be e57c ab3e b526 89be
00000150: f5a2 a9bd 8ac1 33be fa25 e43d bd06 1dbf
00000160: 61e5 483e e4eb 01bf cc41 7cbe b40e 993e
00000170: 5ab5 91bd ecdf 113f f01a 3cbe c52c 01bf
00000180: 25eb a9be 6472 bebd 08d5 f43e bfe6 a23e
00000190: 7de1 d93d 623b c6be 8ec6 82bc b647 81be
000001a0: 34f9 463c 6cf8 5cbe a4ba 01bf 1ee6 4e3e
000001b0: 6ff8 8c3d ed30 51be 8f0a 623e 75a1 ac3b
000001c0: 889d 20bc 0981 debe b7e6 95bd b1aa d2be
000001d0: e1aa 8abd e83f fbbe 6bd4 f6bd e08e 8ebe
000001e0: 613c 32be 24f4 92bd b922 1bbe aae9 0dbe
000001f0: 74c4 78be 07be 053e 294a 7c3e 741f afbe
00000200: 601b 423d 4da4 cf3d ddf6 97bd a2fa 1fbe
00000210: 3a0d d0bd 8aea 37bc 3325 82bd 5975 4dbe
00000220: 3cc6 31bd f2ae 9e3d 4b10 3e3e 85d5 b03b
00000230: 07d8 ef3d 054e fd3d 4317 593d 92cb 1dbd
00000240: b351 9c3d d630 963d 8d64 2abe 0402 26bd
00000250: 09ec a2ba dae4 1fbc 24bd dfbd ad72 b5bd
00000260: 788c 20be a22b 383d 0e69 75be 1b55 0d3e
00000270: 761f 113d 64bd 6abc 8c69 05be bf56 473d
00000280: 03e4 56be 254a e5bd 052d 4cbe 3620 683e
00000290: d45b 75bd dfbb 3abb 6250 70be 7800 ffbd
000002a0: fcf9 973d 6aa7 25be 69c8 26bd 4e07 13be
000002b0: f91f a3bd bfc2 85bd a3cc 22be 6b3e c33d
000002c0: aae7 a1bd e8d1 0bbe c40e 113e 4148 a2be
000002d0: 756a 3d3d f132 50be c784 5b3e a313 0cbe
000002e0: aad3 13bd 5d97 1bbe 250f 9dbe db78 e9bb
000002f0: f8f1 5db8 7b62 dc3d 52cd df3b 1f4e 1abe
00000300: 7e6b 9c3d 6d2a e5be 2237 05bf f077 ecbd
00000310: f2b7 40b9 9864 cd3b d37f b4bd 5841 85be
00000320: 29ab 99bd 82f9 67bd f1fa fcbd 34a1 51be
00000330: 06bc 86be e85f bcbe 29ad 103e 37c4 4dbe
00000340: 0ce8 63be 9877 943d 381e 803e 2aab b2bd
00000350: ff9c 5ebe eb18 c93c e619 a93e af25 05bf
00000360: ef04 743e 1f14 a7be b9b7 283e 29f8 363d
00000370: 6b5f 5cbe 3716 693e e57d 403e acd3 97be
00000380: 1dd7 a1be c16f 123d f1b0 863e 93af e4bd
00000390: 37a6 8abe 28c8 1abe b5f7 533d 4ab4 1cbd
000003a0: c059 2d3e 268b 63be a715 53bd 0275 ebbd
000003b0: 03c6 163e b0d2 0b3e 2967 303e 0ab6 cfbd
000003c0: 6b0c ec3d 0ad1 eabe d146 ba3d e480 30be
000003d0: c6c0 53bd fe58 b6be 59a2 f8bd 5e8a 4bbe
000003e0: e818 e0bd 899a d33b 92c3 143e 36f3 2f3c
000003f0: 43c5 ac3d 28ce a03d 48c2 873e 8f0b f7be
