models/amp_classifier/layers/NoConvAMPClassifier_lstm1/1_weight.npy (npy, 65664 bytes, 1 tensors)

array f4 [64, 256]
000000 a7 56 9e bd 82 c5 54 3e 7a 0a 57 3d 86 82 b4 3d
       -0.077313714 0.20778468 0.052500226 0.08813958
000010 11 7b 85 3c 0f b2 49 3e c0 20 3d bd 19 c2 b4 3d
       0.016294034 0.1969683 -0.04617381 0.08826084
000020 c3 73 1f 3d 60 1e a5 bd cf b2 cb 3d b0 e3 29 3c
       0.03892876 -0.08062434 0.099462144 0.010369226
000030 59 ae 07 3e 04 b3 00 bd 60 2f 07 be fe 79 af be
       0.13250102 -0.031420723 -0.13201666 -0.3427276
000040 66 31 29 3c 00 6b c7 bd c8 ec 19 3e 8d a6 48 3d
       0.010326719 -0.097372055 0.15031731 0.04898696
000050 d4 5b 0c 3e e9 b8 8e be 18 56 29 3e ce d3 af 3d
       0.13706905 -0.2787545 0.16536748 0.085853204
000060 19 fa a8 3e cc e3 89 bd ac 7a de 3e e2 16 76 3e
       0.3300331 -0.06732902 0.43452966 0.24032167
000070 04 7a 69 bc 7d 57 cb 3e 09 d5 2c 3e dc db 29 3e
       -0.014250282 0.39715186 0.16878141 0.16587776
000080 d9 b1 11 bd c0 2a 2c 3e ab be b6 bd 45 e0 69 3e
       -0.03557 0.16813183 -0.08923086 0.22839458
000090 f4 18 0f 3e 2b 91 aa bd 60 e8 51 3d 65 7f 5d be
       0.13974363 -0.0832847 0.051247 -0.21630628
0000a0 7b cf 59 3e ba 75 5d 3d 2d 09 ba be 43 56 b7 3d
       0.21270554 0.05406735 -0.36335126 0.08952
0000b0 45 30 bd 3c a3 91 92 bd fb 43 a7 bc b1 cb 5a 3d
       0.023094306 -0.07156684 -0.020418158 0.05341691
0000c0 8d df a3 3d 23 05 6b 3d 04 69 2f 3e 74 1c eb 3e
       0.08001623 0.057377946 0.17129904 0.45920146
0000d0 75 ae 91 3d 7d 65 2c 3d 2f 6e 81 3d 66 30 8f bd
       0.07113353 0.042088974 0.06319844 -0.06991653
0000e0 86 a7 82 bd 5a 2d 07 3e 63 90 81 3e 13 69 d5 3e
       -0.06379609 0.13200894 0.2530547 0.41681728
0000f0 57 f6 c3 bd e2 97 62 3a b2 80 f6 3d 7c 5e a1 3e
       -0.0956847 0.0008643848 0.120362654 0.31517398
000100 c2 c1 a6 3d 59 8d 88 3e 97 76 db bd 11 c1 1d be
       0.08142425 0.2667034 -0.107159786 -0.1540568
000110 0a 4c 3f be e4 da b3 3d b4 1d 8b be fa 78 6a 3b
       -0.1868135 0.087819844 -0.271711 0.0035777674
000120 4d ca 67 3d b0 54 7d bc 48 a5 26 bd d4 cf 81 bd
       0.056589413 -0.015462086 -0.04068497 -0.06338468
000130 ff cc 84 3e a6 47 4b 3e ee 27 0e 3d b8 e7 b9 3d
       0.2593765 0.1985155 0.03470605 0.090774
000140 54 f6 27 3d 68 24 3c bd 2a 42 85 3d 17 7b 11 3e
       0.0410064 -0.045933157 0.065067604 0.14207111
000150 a4 64 fa bd bd 8c c1 bd ec 16 09 3e 29 a0 99 3d
       -0.12226227 -0.09450672 0.1338765 0.07501251
000160 10 1c 45 be 87 4a 35 3e cf f9 af 3e 0e 49 0a 3f
       -0.19248986 0.17704211 0.34370276 0.5401772
000170 82 b0 16 3d 64 79 ab 3e 85 14 92 3c 24 15 f1 3d
       0.036789425 0.3349105 0.01783205 0.117716104
000180 7b 44 1b bd e4 9d b6 3d 28 4a df 3d 74 33 16 be
       -0.037907105 0.08916834 0.10902816 -0.14668065
000190 3a 6f c5 3d 5a f5 68 3d 3f ef d2 3d c9 84 76 3d
       0.096403554 0.05687461 0.10299539 0.060185228
0001a0 7e 4f fa 3d 4a ac 51 3e 7b 09 19 3e 0e 13 4f 3d
       0.12222193 0.2047588 0.14945023 0.05055528
0001b0 40 0c 6b be 9b 0d fc bd 6d f1 fb 3d 11 86 65 3d
       -0.22953892 -0.123072825 0.12301908 0.05603606
0001c0 b0 ec c1 bd ae 32 03 be 88 8a 52 3e f4 0c 2f 3e
       -0.09468973 -0.12812302 0.20560658 0.17094785
0001d0 71 0f 8b 3e 99 b8 c4 3e db 15 ad 3d 7d 61 9a bc
       0.27160218 0.38422087 0.08451434 -0.018845314
0001e0 f2 6a bc 3e db 0b be bd 58 25 72 3d e0 74 97 3e
       0.36800343 -0.09279605 0.059117645 0.29581356
0001f0 a0 5c 0e 3d cd 59 26 3e a2 50 ca bd b5 20 2a 3e
       0.034756303 0.16245194 -0.09878661 0.16614039
000200 5a df 5e bc 9f 32 e7 bc d2 30 d7 3d 57 b8 d8 3d
       -0.013603056 -0.02822238 0.105073586 0.10582035
000210 af 63 1f 3e ee b0 5a bd 18 67 a1 bd aa 7f 2d bd
       0.1556537 -0.05339139 -0.07880992 -0.042358078
000220 16 04 b7 bd 75 3c 72 3e 58 80 fb bc 85 19 99 bd
       -0.08936326 0.23655875 -0.030700848 -0.074755706
000230 08 a4 9d bc 59 a7 99 3d f1 ed da bc 38 9e aa bd
       -0.019243255 0.07502622 -0.026724787 -0.08330959
000240 2d 76 7e bd 42 a6 19 3b 31 bb bd 3d 4d e7 4e 3d
       -0.06212442 0.0023445045 0.092642196 0.050513554
000250 d6 f3 9d 3d 22 02 79 bd 66 26 7f be 95 47 04 be
       0.07712524 -0.06079305 -0.24916992 -0.12917931
000260 2c 06 32 3e a0 cb 4c bb 86 ea b8 3d 2b e7 1a 3e
       0.17385167 -0.00312493 0.09029107 0.15127246
000270 e1 e4 2d bd 1f e4 00 3e d2 9f d9 3d 4a be 1a be
       -0.042454604 0.12587021 0.106261864 -0.15111652
000280 06 05 c7 3c 4e 66 70 bd 35 7c f4 bd 51 d4 a3 3d
       0.024294388 -0.058691315 -0.11937753 0.079994805
000290 9a 7b 16 3e 1b 5d 9d 3b 1b 3d 8d bd 2b 5e 37 3e
       0.14695588 0.004802359 -0.068964206 0.17907016
0002a0 3c 8c 21 3c 85 cd 09 be 96 1a 42 3d 78 d9 91 bd
       0.009860095 -0.13457306 0.047388636 -0.07121557
0002b0 26 8e a8 bd c4 79 80 bb a3 38 04 be e9 2b cb bd
       -0.08230238 -0.0039207656 -0.1291223 -0.099204846
0002c0 85 ac 82 3d 3e 04 18 be 6a 68 2a 3d 4d b0 28 3e
       0.06380562 -0.14845368 0.041603483 0.16473503
0002d0 60 61 25 be 55 d6 3a bd 0c 4d 9d 3d c8 c3 4b 3e
       -0.16150427 -0.04561456 0.07680711 0.19898903
0002e0 2a 29 11 bc ea 12 ee 3c 02 fd 2e 3e 94 65 e6 bd
       -0.008859912 0.029061753 0.17088702 -0.11249843
0002f0 cc 9d 88 bd ca f3 1b 3e 67 d3 ed bd 4e 78 6b bd
       -0.06670722 0.15229717 -0.116125874 -0.05748778
000300 ae 5f 38 3e a4 27 8b 3e 52 19 84 bd ce 5e 2b be
       0.18005249 0.2717868 -0.06450142 -0.16735384
000310 80 85 a4 bd 6d ec 95 3b e8 e8 61 be 5d 3c d7 bd
       -0.080332756 0.0045753033 -0.22061503 -0.1050956
000320 5d 08 88 3c d0 16 86 3c c2 51 b8 3d f2 30 ee bd
       0.01660555 0.0163683 0.08999969 -0.11630429
000330 dc d6 62 3e ed be 1d 3e cf 44 af be e3 ac 4f bd
       0.22152275 0.15404864 -0.34232184 -0.050701987
000340 a3 35 84 3e 85 c3 17 3d 64 d3 13 bd be 69 34 bb
       0.25822172 0.037051696 -0.03609027 -0.0027528848
000350 b9 0a 13 3e d3 c3 b9 bd b1 00 71 3e f6 0b 65 3c
       0.14359559 -0.09070554 0.2353542 0.0139799025
000360 94 0d f5 3d 75 56 d3 3c 6b da 0d 3f 5d a9 a6 3e
       0.119654804 0.025798062 0.55411404 0.3255109
000370 e6 57 8a 3d 7b 84 ee 3d 82 fc 26 bd 7d cd 92 3e
       0.067550465 0.116463624 -0.040768154 0.286724
000380 35 82 6d bd 24 84 1e bd e8 b7 23 be 65 09 97 3c
       -0.057985503 -0.038700238 -0.15988123 0.018437097
000390 9c fa fe 3d 4f 84 1e be b6 ee b0 3e 8f 50 06 be
       0.12450144 -0.15480159 0.34557122 -0.13116668
0003a0 d8 90 2b 3e 13 37 02 bd b7 09 49 be ba 94 2f 3e
       0.16754472 -0.031790804 -0.19632612 0.17146578
0003b0 64 c0 fd bd 15 c8 36 bd d8 5e 92 3d 6b 3d 61 3d
       -0.12390211 -0.044624407 0.07146996 0.054990213
0003c0 ed de 8d 3d a4 83 2c 3e ef e8 ea 3d 54 0d 71 3d
       0.06927285 0.16847092 0.1147021 0.0588506
0003d0 05 ac cf 3d f7 29 96 3e c0 e5 e1 3d 87 d3 a3 3d
       0.10140232 0.29328892 0.110301495 0.0799933
0003e0 dd d3 8f 3e 4f 68 ac 3d b5 13 57 3e 99 9e 7d bd
       0.28091326 0.08418333 0.21003611 -0.06191883
0003f0 6f 6b 64 3d e0 8a b1 bc 0e 90 0a bd 53 0e 75 be
       0.05576652 -0.021672666 -0.033828788 -0.23931246
