models/amp_classifier/layers/NoConvAMPClassifier_lstm1/2_weight.npy (npy, 1152 bytes, 1 tensors)

array f4 [256]
0	0xbdcc7e2c	-0.09985003
1	0x3c178108	0.009247072
2	0xbd833520	-0.06406617
3	0x3e286bbe	0.1644735
4	0x3e34fd7b	0.1767482
5	0x3d93b78f	0.072127454
6	0x3d3caa38	0.04606077
7	0x3db0be23	0.08630016
8	0x3e2c337d	0.16816516
9	0xbde91729	-0.113813706
10	0xbd2062bc	-0.03915666
11	0x3d7c5273	0.061602067
12	0xbcd5fd95	-0.026121894
13	0x3e1165c8	0.14198983
14	0xbd43695b	-0.047707897
15	0xbd14034e	-0.036135964
16	0x3d974f35	0.073881544
17	0xbd7bd7ac	-0.061484978
18	0x3ea43b60	0.3207655
19	0xbd9c0fab	-0.07620176
20	0x3e1158e8	0.14194071
21	0xbd84f8dd	-0.064927794
22	0x3e87f953	0.26557407
23	0x3dc6d25f	0.09708094
24	0x3ce44ed5	0.027869621
25	0xbb4b70b4	-0.0031042518
26	0xbd5cf15b	-0.053941112
27	0x3e39800d	0.18115254
28	0x3c3762fc	0.011193033
29	0xbd6ca333	-0.057772826
30	0x3d963d27	0.07335883
31	0x3d16989d	0.036766637
32	0x3d17cc74	0.037060216
33	0xbd9812f7	-0.07425492
34	0xbd882122	-0.066469446
35	0x3d6292f2	0.05531592
36	0x3cc17eb9	0.023619996
37	0xbd88d507	-0.06681257
38	0x3d351293	0.044207167
39	0x3de54579	0.111948915
40	0x3da933f3	0.08261862
41	0x3d1c7f1e	0.038207166
42	0x3d1c744e	0.038196854
43	0x3d9ca5b0	0.0764879
44	0x3c8c3176	0.017113429
45	0x3dee769f	0.11643719
46	0xbc4c4592	-0.012467759
47	0x3dda787d	0.106675126
48	0x3dba9d67	0.09112053
49	0xbcf1b503	-0.029505258
50	0xbcfd3d52	-0.030913029
51	0x3d40751a	0.046986677
52	0x3d823cbf	0.06359243
53	0xbb968ee2	-0.0045946697
54	0x3e067a1f	0.13132523
55	0x3d90c4d4	0.07068792
56	0x3e878131	0.26465753
57	0x3d73cdcf	0.059522446
58	0x3e4dbb04	0.20090872
59	0x3db9d583	0.09073927
60	0x3ddd46f1	0.108045466
61	0xbd13235e	-0.0359224
62	0xbc42d7da	-0.011892283
63	0x3dcad61f	0.099041216
64	0x3f80f715	1.0075403
65	0x3f8b1adb	1.0867571
66	0x3f8960e2	1.0732691
67	0x3f846a21	1.0344888
68	0x3f88f34d	1.069925
69	0x3f7a918e	0.9787835
70	0x3f813b73	1.0096267
71	0x3f8bc731	1.0920163
72	0x3f99b1e6	1.2007415
73	0x3f827b0c	1.0193801
74	0x3f8ea399	1.1143676
75	0x3f895d7c	1.0731654
76	0x3f8524c5	1.0401846
77	0x3f8c7e87	1.0976113
78	0x3f8c0562	1.0939143
79	0x3f863842	1.0485919
80	0x3f81170f	1.0085162
81	0x3f8634e2	1.0484889
82	0x3f908102	1.128937
83	0x3f902c62	1.1263545
84	0x3f8580b9	1.0429908
85	0x3f761681	0.9612809
86	0x3f8b5914	1.088656
87	0x3f92e7fa	1.1477044
88	0x3f87d0fb	1.0610651
89	0x3f8a1ce0	1.0790062
90	0x3f7ab349	0.9792982
91	0x3f834f01	1.0258485
92	0x3f7f671f	0.99766725
93	0x3f8c42f9	1.0957938
94	0x3f7bae0e	0.9831246
95	0x3f8bf14b	1.0933012
96	0x3f86f44a	1.0543301
97	0x3f8303f1	1.0235578
98	0x3f83c48a	1.0294354
99	0x3f8da0ee	1.1064737
100	0x3f8e4c8d	1.1117111
101	0x3f869b05	1.0516058
102	0x3f8934b9	1.0719215
103	0x3f7a0ddd	0.97677404
104	0x3f9086e5	1.1291167
105	0x3f902d87	1.1263894
106	0x3f92d4be	1.1471174
107	0x3f92d607	1.1471566
108	0x3f87c4d1	1.0606939
109	0x3f8bb3f3	1.0914291
110	0x3f8ca55e	1.0987966
111	0x3f91501b	1.1352571
112	0x3f89c84e	1.0764253
113	0x3f7d1973	0.9886696
114	0x3f8867e4	1.0656705
115	0x3f84fdca	1.038995
116	0x3f8e2d2b	1.1107534
117	0x3f879cee	1.0594766
118	0x3f941bc7	1.1570977
119	0x3f8887d0	1.0666447
120	0x3f8d3094	1.103045
121	0x3f92cbf0	1.1468487
122	0x3f8753ca	1.0572445
123	0x3f8c2349	1.0948268
124	0x3f9591bb	1.1685098
125	0x3f84f9c4	1.0388722
126	0x3f8b1c3c	1.0867991
127	0x3f88edce	1.0697572
128	0xbc8006e4	-0.015628286
129	0xbc324624	-0.010880981
130	0x3c802446	0.015642297
131	0xbcb0a515	-0.021563092
132	0x3bcf8a45	0.0063336217
133	0xbcaeee9d	-0.021354014
134	0xbda2a9b6	-0.07942526
135	0x3c70f115	0.014705916
136	0xbd18632a	-0.037203945
137	0xbba49692	-0.005022832
138	0xbcb721bd	-0.022354955
139	0xbd2a2934	-0.0415432
140	0xbc6e4b08	-0.014544256
141	0xbd2daace	-0.04239922
142	0xbc7ce871	-0.015436278
143	0x3cd2f4c3	0.025751477
144	0xbd5de423	-0.054172646
145	0x3c468cea	0.0121185575
146	0xbd289d13	-0.041165423
147	0xbb25facb	-0.0025326486
148	0x3c46a41d	0.012124089
149	0x3b960068	0.004577685
150	0xbd0f6bdc	-0.035014972
151	0x3d2c40d6	0.04205402
152	0xbd0e2792	-0.034705706
153	0x3c53fb70	0.012938365
154	0x3bae3a6c	0.005317023
155	0xbc917e4c	-0.017760418
156	0x3d30250a	0.043004073
157	0xbd40fd92	-0.047116823
158	0xbdaf65c8	-0.08564335
159	0x3d0dc2a2	0.034609444
160	0x3c1d82c6	0.009613698
161	0xbc5c6267	-0.013451195
162	0xbcde6efa	-0.027152527
163	0xbcb5f510	-0.022211581
164	0xbc5f65fd	-0.013635156
165	0xbd02ef0d	-0.031966258
166	0xbd29558b	-0.041341346
167	0xbbf069d7	-0.007336836
168	0xbca953d3	-0.020669853
169	0xbbb387c4	-0.005478831
170	0xbd36b761	-0.044608478
171	0x3cf4af92	0.029868875
172	0x3d4e928a	0.05043272
173	0xbd8561fd	-0.065128304
174	0xbd1caa25	-0.0382482
175	0xbd32db2c	-0.04366605
176	0xbd46383f	-0.048393484
177	0x3b8e1cae	0.004336915
178	0xbc65318e	-0.013988866
179	0x3d214882	0.03937579
180	0x3d675673	0.05647893
181	0xbd533e55	-0.051573116
182	0x3d1948a4	0.03742279
183	0xbcacfb5d	-0.021115953
184	0x3b6c4b15	0.0036055495
185	0x3d02188c	0.03176169
186	0x3cca19ab	0.024670443
187	0xbd0a57d5	-0.03377517
188	0x3bbd1d82	0.00577134
189	0x3c68baf6	0.014204731
190	0xbd1a11af	-0.03761452
191	0xbd1b8cea	-0.037976183
192	0x3ce64580	0.028109312
193	0x3e0fae40	0.14031315
194	0x3d8e2f84	0.06942657
195	0x3e399bbc	0.18125814
196	0x3e227946	0.15866575
197	0x3d92f7a4	0.0717614
198	0x3e3bbaea	0.18333021
199	0x3e085def	0.13317083
200	0x3e613dc3	0.21996216
201	0xbd77e193	-0.06051786
202	0x3de02a11	0.109455235
203	0x3d99e099	0.07513542
204	0x3e0e817f	0.13916586
205	0x3e087044	0.13324076
206	0x3d6eaf2b	0.058272522
207	0x3dc57229	0.09640915
208	0x3de92300	0.11383629
209	0xbb94cf16	-0.004541288
210	0x3eb5e4b6	0.35526055
211	0x3da03416	0.078224346
212	0x3ca87c00	0.02056694
213	0x3e0dff71	0.13866974
214	0x3e95b4c8	0.29239488
215	0x3e13e1a5	0.14441545
216	0x3e781706	0.24227533
217	0x3e2943ba	0.16529742
218	0x3d8ac369	0.06775553
219	0x3e103d33	0.14085846
220	0x3d944a5d	0.07240746
221	0x3e2d29fb	0.16910546
222	0x3de85588	0.11344439
223	0x3d67d1cc	0.056596562
224	0x3bd8a5c0	0.006611556
225	0x3d2f50cb	0.04280166
226	0x3d74e1e4	0.05978574
227	0x3e7a5088	0.24444783
228	0x3d2624ce	0.040562443
229	0x3dfb442c	0.12268862
230	0x3e661ebf	0.22472666
231	0x3df94e79	0.121731706
232	0x3e800c99	0.2500961
233	0x3d1b7dd2	0.03796179
234	0x3df1cc23	0.11806514
235	0x3e12aa6f	0.14322828
236	0x3d84a1b4	0.06476155
237	0x3e4352ce	0.19074556
238	0x3dad0702	0.08448602
239	0x3e48e1dc	0.19617409
240	0x3d83f50d	0.06443224
241	0x3dd3b87c	0.10337922
242	0xbc4c91e5	-0.012485956
243	0xbb1427a9	-0.0022606647
244	0x3db43f35	0.08801118
245	0x3dd68d62	0.104761854
246	0x3e9268a6	0.28595465
247	0x3e1feb92	0.15617207
248	0x3eab9088	0.33508706
249	0x3e168782	0.1470013
250	0x3db36fdb	0.08761569
251	0x3e6812e7	0.2266346
252	0x3e1de808	0.15420544
253	0x3bfc2543	0.0076948716
254	0x3d3f26eb	0.046667974
255	0x3e3a0ba3	0.18168502
