models/amp_classifier/layers/NoConvAMPClassifier_dense_output/0_weight.npy (npy, 528 bytes, 1 tensors)

array f4 [100, 1]
-0.43289182 -0.2757628 0.21944667 -0.31963977 -0.15740198 0.41140693 -0.38895634 0.31741494
-0.46454293 0.09011477 0.022046633 -0.24698973 -0.33713457 0.4378124 -0.25050747 0.6242446
0.54201925 0.31129208 0.29765293 0.55107754 0.46000853 0.28801957 -0.013710209 0.09029215
-0.20640492 -0.29527524 -0.37337717 -0.28711447 0.453164 -0.3880636 0.36029783 -0.61312664
-0.31324157 -0.5077634 -0.34767154 -0.29033667 0.20888789 0.16061555 0.49556476 0.109056965
-0.4146757 0.33647156 0.19454692 -0.22383988 0.31232822 -0.5161606 0.30683756 -0.34525985
-0.31921548 -0.09863019 -0.39321056 -0.46548593 -0.38338336 -0.3503113 -0.3723364 -0.41942304
-0.2800494 -0.46970376 0.37459785 -0.36084786 -0.28771508 -0.013566989 0.30125976 -0.35067195
0.3772324 -0.35307035 0.37143946 0.37719074 -0.25971708 0.22422227 -0.19265151 -0.2637367
0.21698834 0.33477354 0.64084435 -0.22989605 0.31835154 0.22446607 -0.37161514 -0.37633055
0.39299798 -0.39023224 -0.47508153 -0.079111926 0.268593 0.20707473 -0.08452067 -0.2446051
-0.23215824 -0.42131317 0.003649535 -0.35025612 -0.48018363 0.27252686 0.4643057 0.014493263
0.41432574 -0.58835346 -0.35569033 -0.26034242
00000000: ffa3 ddbe c830 8dbe a1b6 603e d3a7 a3be
00000010: fc2d 21be eea3 d23e 4925 c7be 3684 a23e
00000020: 92d8 edbe 188e b83d 249b b43c e0ea 7cbe
00000030: e79c acbe f228 e03e 8442 80be 7ece 1f3f
00000040: c6c1 0a3f ad61 9f3e f765 983e 6b13 0d3f
00000050: 3d86 eb3e 4d77 933e c9a0 60bc 17eb b83d
00000060: d05b 53be 512e 97be 4b2b bfbe ab00 93be
00000070: 1d05 e83e 46b0 c6be f578 b83e def5 1cbf
00000080: 3361 a0be c8fc 01bf 0102 b2be 02a7 94be
00000090: b5e6 553e 6778 243e aaba fd3e 4259 df3d
000000a0: 6050 d4be 0046 ac3e 4f37 473e 4836 65be
000000b0: 7ce9 9f3e 1a23 04bf d019 9d3e e6c5 b0be
000000c0: 3670 a3be a0fe c9bd e552 c9be 2c54 eebe
000000d0: d34a c4be 015c b3be e0a2 bebe 9ebe d6be
000000e0: a362 8fbe 037d f0be 4acb bf3e 0dc1 b8be
000000f0: 644f 93be 1448 5ebc b83e 9a3e 468b b3be
00000100: 9b24 c13e a3c5 b4be 502d be3e 251f c13e
00000110: a3f9 84be 869a 653e 7046 45be 7f08 87be
00000120: 3132 5e3e 7067 ab3e 600e 243f df69 6bbe
00000130: f9fe a23e 6fda 653e 5744 bebe 66ae c0be
00000140: 0837 c93e 85cc c7be e33d f3be 6f05 a2bd
00000150: 0685 893e 660b 543e 2c19 adbd c279 7abe
00000160: e4ba 6dbe 5cb6 d7be 092d 6f3b c554 b3be
00000170: a1da f5be a488 8b3e 7ab9 ed3e 2775 6d3c
00000180: 8122 d43e 559e 16bf 0b1d b6be 9a4b 85be
