models/amp_classifier/layers/NoConvAMPClassifier_lstm2/0_weight.npy (npy, 102528 bytes, 1 tensors)

array f4 [64, 400]
00000000: 2e74 853d ffc4 43bd 51e2 1f3e eabe 01be
00000010: f8a2 643d 4685 043e 1ee4 8ebc 3f6f 603e
00000020: a748 b13e 05f2 8e3e bc12 a2bd 037f 3d3d
00000030: 5725 5abc b4fa ba3d 59e4 153d 1bc7 673e
00000040: 320d 70be 916c 953d cc7c 093e edcf fb3d
00000050: 0df2 58bc 84e7 833e 056e 13bc cc9d 943d
00000060: 4d02 de3c e34a 8f3e fb6c 1b3e 2ce8 3c3e
00000070: 4513 963d 7329 3e3e 7279 1ebd 0271 4a3e
00000080: 88f1 d6bb 2b6f b03e 8216 3fbe 8e09 9a3d
00000090: b238 6d3d 72e0 433e f3ac c2bb a8cd 843e
000000a0: 01ba 603e 5534 6ebe d005 65bc dee5 763d
000000b0: d0b0 bd3d a57f 973c cc25 a6bd 8078 033e
000000c0: f8f8 c43d f6e3 4d3e cc93 643a 59d6 49be
000000d0: 22d2 89be 54d2 20bd 7462 9a3e 6dae 3b3d
000000e0: 2e7d 113e 3d32 ae3d babe 1c3d a1ad a63d
000000f0: 7766 313e 8837 69be bb50 e03d f5db 183e
00000100: 5945 913e da57 8a3e 9bc2 843e 6d15 643e
00000110: 5218 963d e688 ac3d de5f 013d f206 323e
00000120: bfc5 f2bc 4838 4ebe 33c0 d3bc 3eca 473c
00000130: 4573 c83d d630 073e fadd 07bd f2dc 403e
00000140: 22bd b23e 4068 e23a a387 383e 677e 723e
00000150: 50ae c9be 487d cdbc 2d71 fc3d be2d 68be
00000160: 6cc3 51bd ee7d 013e b59f 053d 7c78 b3bc
00000170: 9e2e b23e 58df 773e beb4 ad3d d32c 013e
00000180: 2276 1a3e 65d1 5fbc 1f96 0b3d b40e 2abd
00000190: 5f48 0dbe 1ede 923e c12d a1bd b5e1 643e
000001a0: 9f6f 283c 8126 093e aa84 8f3d 6584 833d
000001b0: 9698 14be f5a6 cd3e 0ac9 94be b15a 79be
000001c0: 9010 213e 6663 efbc f058 33be e151 bb3d
000001d0: 2efa 50be f7fa b5be 6556 303d 27da 483e
000001e0: 5950 023e 5c59 633e 2bc4 443d 5a1f be3d
000001f0: 9270 c9bd a295 93bd 914d 86be f846 bd3e
00000200: e5e5 a63d c021 2a3d 7b12 b73d b1bc c83d
00000210: 654f 773d e43c a6bd 98b6 91be 7364 8fbe
00000220: bf31 50bd 485f e23c 59a4 7c3e ef66 1a3e
00000230: 8c4e 27bc 3eec 783e fdec b4bc c805 0cbe
00000240: caf5 21bd 0298 acbb 2d82 53be b18e e4bc
00000250: 20ca 203e b802 ecbd f332 d83d ea82 afbc
00000260: d4a1 05be 5c6d eebb c643 6b3e a416 f4bd
00000270: c1c3 d5bd 9abd b73d f171 5dbe 0329 a8bc
00000280: 9116 8bbe 38ad 78bd d0c6 84bd 31c2 86be
00000290: 8eab e63d 2217 8c3d 98ba 0e3e a6c6 4abe
000002a0: 6855 9abc d43d c1be c46c 3fbd 3da0 22be
000002b0: 498c f5bd 8d0a 0e3d 4d68 45bd 9166 41be
000002c0: 6690 51bd 667f c6bd b88c 06bf 8ebb 9cbe
000002d0: f838 94bd d95b 44be 6d35 83bd 8d2d 35be
000002e0: 8e2c 613e 125a eabe 7116 1d3e efe4 14be
000002f0: 186a a43e 8004 66bc 122c 50be 0928 213e
00000300: 91d5 05be 0060 4d3d 7ad2 7abd cdf1 983e
00000310: 6bde b63c 4d16 4d3e 1c00 4abe ed3a b2be
00000320: 4285 563e 4c5b c73d 3987 25be bb38 1b3d
00000330: ab32 8b3c a559 55be e9b9 de3d 10cf 9cbe
00000340: 4620 963c 2e59 683c 0b35 03be 8698 d13d
00000350: 2102 843e 28ad a8bc 6f66 c23d 50c9 1fbe
00000360: 78f4 84be 7ede 37be 9441 cebd e6f3 07be
00000370: a2a9 1ebe 0210 d2bc 9c63 353e 2d47 04be
00000380: 0ad7 0c3e 4c22 343e 2284 9fbd 77fa aebc
00000390: 8a02 a8bd 8825 413e c448 283c 4f3c a5be
000003a0: 3f3b 9e3d ec32 363e d6cc 1bbe 9fa2 3c3e
000003b0: 3dde 853d 8feb 1a3e 276e 18be 0e58 c73d
000003c0: 00eb e33c 4db3 24bd 4cef 0bbe 3fbe 0b3e
000003d0: a3a6 0dbe fc3f e7bd c94c 8ebd 45a7 2d3d
000003e0: e2c3 273e 2e00 5b3d 4133 353e 0bd6 4bbe
000003f0: 1004 863d 1756 393e f22a 043c f130 423e
0.065163 -0.047795292 0.15613677 -0.12670484 0.05581948 0.12941465 -0.01744276 0.21917437
0.34625742 0.2791902 -0.079137295 0.046263706 -0.013314567 0.09129849 0.036594722 0.22634546
-0.23442534 0.07296098 0.13426512 0.12295518 -0.013241303 0.2576257 -0.008998399 0.0725666
0.027100706 0.27986822 0.15178291 0.18447942 0.07327894 0.18570499 -0.038690038 0.19769672
-0.0065595545 0.34459814 -0.1866093 0.07521354 0.057915397 0.19128588 -0.0059410273 0.25938153
0.21945955 -0.2326215 -0.013978437 0.060277812 0.0926224 0.018493483 -0.08112678 0.12838936
0.096177995 0.20106491 0.0008719533 -0.19710673 -0.2691813 -0.039263085 0.3015324 0.045820642
0.14207909 0.08505676 0.03826783 0.08138586 0.17324243 -0.2277509 0.10952898 0.14927657
0.2837322 0.2702015 0.25929722 0.22273798 0.073288575 0.08424549 0.031585567 0.17385462
-0.029635308 -0.20138657 -0.025848484 0.012194214 0.09787611 0.13202223 -0.033170678 0.18834284
0.34909922 0.00172735 0.18020491 0.23681031 -0.39390802 -0.025084153 0.12326274 -0.226737
-0.05121176 0.12645695 0.03262301 -0.021908037 0.3480119 0.24206293 0.084817395 0.12614755
0.15084127 -0.013660763 0.034078714 -0.04151793 -0.13797139 0.28685087 -0.07870055 0.22351725
0.010280519 0.13393594 0.070077255 0.06421737 -0.14511332 0.4016644 -0.2905963 -0.24351002
0.15728974 -0.029222202 -0.17514396 0.091464765 -0.20407936 -0.35543033 0.043051142 0.19614469
0.12725963 0.22202057 0.048038643 0.092833236 -0.09835924 -0.072062746 -0.26231053 0.36968207
0.08149318 0.041536093 0.08939072 0.09801615 0.06037845 -0.08117083 -0.2845962 -0.28006324
-0.05082869 0.027633324 0.24672069 0.15078329 -0.010211598 0.24308869 -0.022085661 -0.1367408
-0.039541043 -0.005267144 -0.20655127 -0.027900072 0.15702105 -0.11523956 0.10556593 -0.02142473
-0.13050014 -0.0072762202 0.22975072 -0.11918381 -0.10437728 0.089717105 -0.21625496 -0.020527368
-0.27165654 -0.06071207 -0.06483233 -0.2632003 0.1126319 0.0684035 0.13938367 -0.19802341
-0.018839553 -0.37742484 -0.046734586 -0.15881439 -0.11989648 0.03467803 -0.048195172 -0.18886782
-0.0511631 -0.09692268 -0.5255847 -0.30611843 -0.072374284 -0.19175662 -0.064066745 -0.17693157
0.21989653 -0.45771843 0.15340592 -0.14540456 0.32112193 -0.014039159 -0.20329311 0.15737928
-0.1306975 0.05014038 -0.061235882 0.2987198 0.022322854 0.20028038 -0.19726604 -0.34810582
0.20949271 0.0973421 -0.16164865 0.0378959 0.016991934 -0.20834978 0.10875303 -0.30626726
0.018325936 0.014181418 -0.12813203 0.1023417 0.25782874 -0.02059038 0.09492194 -0.15604138
-0.25967765 -0.17955968 -0.10071102 -0.13276634 -0.15494397 -0.025642399 0.17713779 -0.12917776
0.13753906 0.17591208 -0.07788874 -0.021359665 -0.08203609 0.18861973 0.010271255 -0.32272574
0.07726144 0.17792863 -0.15214857 0.1842141 0.06536529 0.15128921 -0.1488577 0.09733592
0.027822018 -0.040210057 -0.13665503 0.13646792 -0.13833098 -0.11291501 -0.06948239 0.04239585
0.16383317 0.05346697 0.17695333 -0.1990587 0.065437436 0.18099247 0.00806688 0.18963982
