models/amp_classifier/layers/NoConvAMPClassifier_lstm2/1_weight.npy (npy, 160128 bytes, 1 tensors)

array f4 [100, 400]
00000000: 9211 b8bd 69c4 043c 5bae 463e 3e5b ed3b
00000010: b02a d23e 84e5 0a3e 9b3c 093e 0b17 273e
00000020: 7634 9abd 8322 dabe 1709 e93d a4c3 023e
00000030: 5f66 e03d 9259 a8bb 9c8c 6ebd 0bc6 75be
00000040: c8fc b039 de93 ba3b d982 213e 67ed 583e
00000050: 7e5c a63d 58db 89bd 607c 47be 19a7 863e
00000060: c9cb ee3d 29d2 153e 042f dcbc aba6 3dbd
00000070: 629d 5f3b 48d9 2f3e 13b1 1c3e 404e de3c
00000080: b7fe e63d a05d e43d 9e6d efbd 500b 673e
00000090: 8e19 5c3e c219 6cbc 9e6a 433e 8d35 ef3c
000000a0: eb5b e43d 1ec9 d7be cffd 243e 2908 c23e
000000b0: 2410 71bd 3db2 103e b941 143e 4971 093e
000000c0: ef0f 2cbd 482e be3d 5029 7c3d 0940 5abd
000000d0: 2f4b a13d 78c7 bfbc f8ff 203e cd80 bdbd
000000e0: 27b5 153e 420b bf3b 18f9 913d 0bff 9d3e
000000f0: 3f0f e33d 4e31 483e 8521 9d3e d26f 923e
00000100: a1be 973d d2dc 1ebc 5c13 853b 4397 c23d
00000110: cd2e c23e 84a5 573c bfbb ffbc 4ea6 a13e
00000120: 4f6d 0dbe 9067 8e3e 3544 b73c 3cad d3bc
00000130: 90d8 133d b9a2 78be 9029 2a3e 3636 743e
00000140: 0e1e 5c3e 96ee ad3d f69d 1dbd 49ac 913e
00000150: f423 533a 4e8e 6b3e accc 503e 5e42 af3d
00000160: 1103 ab3d ff60 7c3e be9e 83bd f183 15bd
00000170: d010 04bb cf48 863d aa99 1fbd 3c97 65be
00000180: f49e 1a3e 6b30 893e 02d4 b43d 715d 143e
00000190: 6d4e 09be 5368 6bbe 8cc1 c83c 8382 af3d
000001a0: d1ff 1b3e 3936 f8bc a7c3 81be 66c3 52be
000001b0: fe23 efbd 17f2 da3e ed30 823e 8f4c 8f3d
000001c0: 017b 10be eca7 a43e d9be 5abe f7c2 48bd
000001d0: d976 86bd 3e79 b5bd 86ee 97bd 6c6d 18be
000001e0: 0efa 103e b7e8 2bbe e292 cc3c c769 3fbe
000001f0: 6937 9dbd a627 97bd 53b3 263e 5724 cbbd
00000200: 3a6e 4bbe c36e b7bd e5de 54bd cdba 143d
00000210: a603 0bbe 8899 a03c e5b8 c1bd 655b a23d
00000220: 445b 753e 40b7 aabd a69e b43c e1c3 b93d
00000230: 6952 c13d cf0f 7d3e 0ba3 f8bd ae02 eabd
00000240: c3d5 36be 9839 b5be d8d0 88bd 0e47 563d
00000250: 87df 94be e7f1 2abe 0c1c ae3d c8af 95bd
00000260: a7fa 9abd 27bd cc3d dbcb 8ebc dc9c de3d
00000270: 2ac4 03bd d422 033e e753 51be 7e7c 133d
00000280: c415 1dbd 8563 97bd f408 59bd 6353 8c3d
00000290: 017e 05be d13a 5e3d da75 463e 6853 8dbe
000002a0: d41c 47bd 70e7 b43d 3687 98bd aaf7 8d3e
000002b0: 392d abbd 6926 963c a290 58be a643 e6bc
000002c0: 8cb9 b93d 8d7a 72bd 4a45 f7bd f9d0 7b3c
000002d0: fac8 c43c 2c89 623d 9300 383e abb4 283c
000002e0: d108 d33d 14bc c5bc cc7d 473e e7fb 163e
000002f0: c7ff 2fbe bb41 42bd 45a1 003d 5a29 44bd
00000300: 1df9 e0bd a5a2 7dbe f543 f4bd 6a77 6fbe
00000310: 4eee 223e 9cd4 4bbc c928 d53c 9353 9cbd
00000320: 2070 25be 73b3 1b3d 1a50 53bd 3177 a7bc
00000330: 4a88 26be c491 103e da63 18be c119 853d
00000340: f4e5 06be ca27 64bc ad57 a93d fef9 d33c
00000350: bf32 36bd 650d 8abc 4baf aabd c43f 033e
00000360: aea8 3fbd dae5 4bbd 00f2 bc3c 971a 803d
00000370: dbd8 223e cca5 c23c 74fc 2a3d 41f8 9ebd
00000380: c2e3 abbd 42de a03d 6cb5 57be e1bb 93bc
00000390: d0c5 d03d fcb5 0cbd ea9b c23b 5bc5 6dbd
000003a0: 72d7 2dbd 4fed a8bd 95fc 13bd 3984 00be
000003b0: 8205 e93d f8ad fbbd 4d5d 563e fc00 b8bc
000003c0: 2eca ddbd 2557 413e 9257 323e 6121 b6bd
000003d0: 695d 3abd 2a3e 35bd b0f5 103d 259f 94ba
000003e0: 38fc 5bbd e6c2 c33c d44f f2bd c86f a23d
000003f0: 160d 7cbd ca2f 54ba d88d 15be 439b f1bd
-0.08987726 0.008103468 0.19402449 0.007243543 0.41048193 0.13564116 0.13402025 0.16317384
-0.075295374 -0.42604455 0.11378687 0.12769943 0.10957026 -0.0051376307 -0.058239564 -0.24001329
0.00033757673 0.0056938967 0.1577257 0.21184312 0.0812311 -0.067312896 -0.19481039 0.2629936
0.11659963 0.14630951 -0.026877888 -0.046301525 0.0034120907 0.1717273 0.15301923 0.027136922
0.11279052 0.1115067 -0.1169083 0.22562909 0.21494123 -0.014410438 0.1908364 0.02920034
0.111503445 -0.42145628 0.16112445 0.3789685 -0.058853284 0.14130493 0.14478196 0.13422121
-0.042007383 0.09286171 0.061562836 -0.053283725 0.07875668 -0.023410544 0.15722644 -0.092530824
0.14619885 0.0058301995 0.07127589 0.30858645 0.11086892 0.19550058 0.30689636 0.28600937
0.074094065 -0.009696202 0.0040611457 0.09501507 0.3792633 0.013162021 -0.031217454 0.31572193
-0.13811229 0.27813387 0.02237139 -0.02583944 0.036095202 -0.24280824 0.16617417 0.23848805
0.2149584 0.08492772 -0.03848072 0.28451756 0.00080543687 0.23003504 0.20390576 0.085575804
0.08350194 0.24646376 -0.06426762 -0.036502782 -0.0020151623 0.06556856 -0.038964905 -0.22420973
0.15099698 0.26794752 0.088295 0.1448877 -0.13408823 -0.22989015 0.024506353 0.08569815
0.15234305 -0.030299293 -0.25344583 -0.20582351 -0.11676787 0.42762825 0.25427952 0.06997024
-0.14109422 0.32159364 -0.21361865 -0.049014058 -0.06565637 -0.08861016 -0.074185416 -0.14885491
0.14157888 -0.16787992 0.024972383 -0.18692695 -0.07676584 -0.07380609 0.16279344 -0.09919041
-0.19866267 -0.08956673 -0.05197038 0.03631096 -0.1357561 0.01960446 -0.09459094 0.079275884
0.23960596 -0.083357334 0.022048306 0.09070564 0.094395466 0.24713062 -0.12140473 -0.11426292
-0.17854981 -0.35395503 -0.06680459 0.052313857 -0.29076788 -0.16693841 0.08501443 -0.07308918
-0.075673394 0.099970154 -0.01743119 0.10869762 -0.0321695 0.12806255 -0.20442162 0.036007397
-0.038350835 -0.07392029 -0.052987054 0.06851842 -0.13036348 0.05425531 0.19380894 -0.27602696
-0.048611477 0.08833206 -0.074476644 0.27728015 -0.08358235 0.018328862 -0.21148923 -0.02810843
0.090685934 -0.059198905 -0.12073763 0.015369647 0.024021614 0.0553066 0.17968969 0.010296981
0.10304416 -0.024137534 0.19481581 0.1474453 -0.17187415 -0.047425967 0.0314038 -0.047891
-0.109850146 -0.24769075 -0.11927024 -0.23385397 0.15911219 -0.012440827 0.026020424 -0.07633128
-0.16156054 0.038012933 -0.051590063 -0.020442577 -0.16262928 0.14118105 -0.1488184 0.06499053
-0.13173658 -0.013925502 0.08268676 0.025876042 -0.04448199 -0.01685209 -0.08334216 0.12817293
-0.046791725 -0.04977975 0.023064613 0.062550716 0.15903036 0.023760699 0.041744664 -0.077621944
-0.08393051 0.07854892 -0.210653 -0.018033924 0.1019398 -0.03435324 0.0059389966 -0.05804954
-0.042441793 -0.08248388 -0.036129553 -0.12550439 0.11378004 -0.12289041 0.20934029 -0.022461407
-0.10829578 0.18880899 0.17416218 -0.08893085 -0.04549924 -0.044248737 0.035390556 -0.0011338933
-0.05370733 0.023896646 -0.11831632 0.07931477 -0.061535917 -0.00080942793 -0.1460489 -0.11797192
