models/amp_classifier/layers/NoConvAMPClassifier_lstm2/2_weight.npy (npy, 1728 bytes, 1 tensors)

array f4 [400]
0.1303889 0.22577927 -0.066587746 0.11591511 -0.014174106 0.19486786 0.0624695 0.14958481
0.17612915 0.12127989 0.19014117 0.010019685 -0.0046790857 0.1911326 0.021260131 0.10313863
0.20081282 0.1211468 0.084120125 0.13004498 0.19389756 -0.08135869 0.096177295 -0.023767728
-0.023297006 0.03812394 0.1024325 0.1760814 0.07779625 -0.019353703 0.01943294 0.52370244
0.0059067295 0.09968521 0.22707972 -0.034595743 0.0637532 0.0801525 0.24819598 0.1457548
0.10176201 0.02636156 -0.05042871 0.13138509 0.08538529 0.29674664 0.09441344 0.12520252
-0.08427302 -0.039092943 0.05801127 0.2533662 0.17646617 0.037743032 0.0042670993 0.17075355
-0.034331724 0.23720384 0.14470004 0.039939597 -0.026066968 0.017868446 0.021822767 0.045643147
0.07247317 0.00052647217 0.02790656 0.10162084 0.13402176 0.12925573 -0.046658143 0.039106824
0.024455218 0.0630458 0.35564777 -0.07321882 0.04612426 0.06498582 0.18366759 0.02207913
0.08916833 -0.050892584 0.19178736 0.09503397 0.1589996 0.046400193 0.04509785 0.12749308
0.06280128 0.0071611432 0.105423555 0.034639835 0.08228141 0.082582064 0.2180361 0.11770174
0.011084428 0.26021385 0.14740029 0.11102748 0.8937727 1.0266289 0.969925 0.9000903
1.08581 0.8610308 0.9419609 0.98339164 1.0932698 0.7691315 1.0656855 0.9821386
1.0267894 1.0430363 0.98836833 0.9388753 0.8437441 1.0105134 0.9708906 0.92123157
0.796489 0.97146875 1.0636953 1.0306064 0.957914 1.0273951 0.9423986 0.94284344
0.8724472 1.0258914 0.9509229 0.72448796 1.0170078 0.9332816 0.94061023 0.9649501
1.0354573 0.9164074 1.0001078 1.1761861 0.8519841 0.9168065 0.96664065 1.0411199
0.941924 0.7224556 0.92170465 1.0192338 0.96823734 1.0078564 0.92859703 0.94572085
0.89956474 0.9665504 0.9911746 0.936921 0.9507771 1.0920233 0.91664755 1.0349787
0.94486886 1.0684203 0.9544568 0.98175883 0.9383051 0.9892022 0.91968393 0.9116861
1.0021012 1.0684614 0.9764448 1.0031885 0.9114036 1.0615603 0.7288839 0.956323
0.9246322 0.97179836 0.9405495 0.94709134 1.0206181 0.9812658 0.8976621 1.0329026
1.1363811 1.0423511 1.0175115 1.0323741 1.0564024 0.97202903 1.2131567 0.8203089
0.99742264 0.928974 0.80773365 1.0253385 0.9654005 0.6960567 0.9676655 1.0070636
-0.0851504 -0.04563433 0.030346274 -0.018409943 0.047910783 -0.009582051 -0.028385736 0.061562024
0.031638723 -0.113707565 -0.021293588 -0.0962326 -0.019122215 0.0639099 0.0009554203 -0.070855275
-0.1170763 0.04389103 0.064013384 -0.023977542 -0.112343736 0.02931052 -0.05291745 0.03793367
-0.013313441 -0.047342423 -0.016375918 0.028405994 0.024171857 -0.046438623 0.028937532 0.113572516
-0.0128325345 -0.007357168 0.16386667 -0.04030729 0.045675296 0.086771265 0.022917923 -0.045071907
0.03540345 -0.038134027 0.019798344 -0.020739706 0.036173392 0.09781977 0.017333573 -0.04300302
-0.02968649 -0.035437234 -0.025030449 0.05382551 0.027637845 0.04163714 -0.0056737103 -0.020821624
00000000: ab84 053e ae32 673e 285f 88bd e764 ed3d
00000010: 823a 68bc 718b 473e 05e0 7f3d c32c 193e
00000020: 335b 343e 9761 f83d 5eb4 423e 9b29 243c
00000030: 0453 99bb 44b8 433e ba29 ae3c 593a d33d
00000040: e0a1 4d3e d01b f83d 2c47 ac3d 832a 053e
00000050: 158d 463e 639f a6bd 9af8 c43d 8ab4 c2bc
00000060: 5dd9 bebc d927 1c3d 21c8 d13d af4e 343e
00000070: a453 9f3d a88b 9ebc d431 9f3c 5d11 063f
00000080: 3d8d c13b c227 cc3d 9687 683e 44b4 0dbd
00000090: 0a91 823d fe26 a43d 1627 7e3e bf40 153e
000000a0: 9a68 d03d 33f4 d73c 568e 4ebd d089 063e
000000b0: 7cde ae3d 2def 973e d55b c13d 1735 003e
000000c0: 5597 acbd ec1f 20bd 3a9d 6d3d 37b9 813e
000000d0: 8cb3 343e 7098 1a3d 06d3 8b3b 05da 2e3e
000000e0: 6c9f 0cbd 90e5 723e 3f2c 143e b497 233d
000000f0: 658a d5bc d960 923c a9c5 b23c 4ff4 3a3d
00000100: d06c 943d f302 0a3a 4c9c e43c 961e d03d
00000110: 003d 093e 9d5b 043e 9c1c 3fbd 7a2e 203d
00000120: 4f56 c83c 281e 813d 7717 b63e c0f3 95bd
00000130: cbec 3c3d 4917 853d 5b13 3c3e 4bdf b43c
00000140: e39d b63d be74 50bd e863 443e 2ca1 c23d
00000150: cbd0 223e 210e 3e3d 86b8 383d 8c8d 023e
00000160: f59d 803d 06a8 ea3b 4ee8 d73d 80e2 0d3d
00000170: 2883 a83d c920 a93d db44 5f3e 9c0d f13d
00000180: 769b 353c c03a 853e 1af0 163e 6062 e33d
00000190: 4ace 643f 9368 833f 014d 783f 516c 663f
000001a0: d2fb 8a3f 846c 5c3f 5924 713f 8ebf 7b3f
000001b0: 44f0 8b3f cde5 443f 6268 883f 6f6d 7b3f
000001c0: d66d 833f 3782 853f b505 7d3f 225a 703f
000001d0: 9dff 573f 8158 813f 498c 783f d5d5 6b3f
000001e0: b4e6 4b3f 2db2 783f 2b27 883f e9ea 833f
000001f0: da39 753f af81 833f 0941 713f 305e 713f
00000200: b358 5f3f 6950 833f af6f 733f 0b78 393f
00000210: 502d 823f 8beb 6e3f d5cb 703f f806 773f
00000220: dd89 843f ad99 6a3f 8803 803f 448d 963f
00000230: a11b 5a3f d5b3 6a3f c375 773f 6b43 853f
00000240: ee21 713f daf2 383f d6f4 6b3f 4176 823f
00000250: 67de 773f 7001 813f 89b8 6d3f c31a 723f
00000260: e049 663f d96f 773f 9ebd 7d3f 0eda 6f3f
00000270: 2166 733f 6bc7 8b3f 6aa9 6a3f 2f7a 843f
00000280: ede2 713f ffc1 883f 4857 743f 8c54 7b3f
00000290: c334 703f 5b3c 7d3f 6870 6b3f 4364 693f
000002a0: da44 803f 58c3 883f 49f8 793f 7b68 803f
000002b0: bf51 693f 35e1 873f 2398 3a3f 96d1 743f
000002c0: b2b4 6c3f c7c7 783f dac7 703f 9474 723f
000002d0: 9da3 823f 3c34 7b3f 2fcd 653f 2736 843f
000002e0: f074 913f c36b 853f d13d 823f d624 843f
000002f0: 3238 873f e5d6 783f b848 9b3f c4ff 513f
00000300: 1757 7f3f 3dd1 6d3f a2c7 4e3f 4b3e 833f
00000310: 7d24 773f c630 323f edb8 773f 76e7 803f
00000320: 5563 aebd 10eb 3abd c098 f83c 73d0 96bc
00000330: 193e 443d 09fe 1cbc 3489 e8bc 7628 7c3d
00000340: 9b97 013d 83df e8bd e46f aebc 9915 c5bd
00000350: 31a6 9cbc 32e3 823d 2c75 7a3a 921c 91bd
00000360: b3c5 efbd 15c7 333d 7319 833d 8d6c c4bc
00000370: 7914 e6bd 9e1c f03c f8bf 58bd 5660 1b3d
00000380: 9e20 5abc 21ea 41bd ca26 86bc b0b3 e83c
00000390: 0f04 c63c 6d36 3ebd 670e ed3c b598 e83d
000003a0: 8d3f 52bc 6614 f1bb aacc 273e 4219 25bd
000003b0: 0516 3b3d 22b5 b13d 5ebe bb3c 529d 38bd
000003c0: 3503 113d 6d32 1cbd 2330 a23c 51e6 a9bc
000003d0: 8d2a 143d bb55 c83d 23ff 8d3c ef23 30bd
000003e0: 1531 f3bc a226 11bd a80c cdbc 2378 5c3d
000003f0: c368 e23c b58b 2a3d 88ea b9bb 1c92 aabc
